…
encoder_dim=[[20,
1024,
1024,
1024,
128],
[59,
1024,
1024,
1024,
128]],
epochs=200,
fp_ratio=0.5,
lr=0.002,
min_blr=0.0005,
min_lr=0.002,
missing_rate=0.0,
momentum=0.98,
n_classes=15,
n_sample=4485,
n_views=2,
num_workers=1,
output_dir='./output/Scene15/Scene15_msrt_0.0_tau_0.5_bs_1024_blr_0.0005',
pin_mem=True,
print_freq=50,
save_ckpt=False,
seed=1,
singular_thresh=0.2,
start_epoch=0,
start_rectify_epoch=20,
temperature=0.5,
train_id=0,
train_time=5,
use_divide=False,
warmup_epochs=20,
weight_decay=0)
OursModel(
  (online_encoder): ModuleList(
    (0): FCN(
      (ffn): Sequential(
        (0): Linear(in_features=20, out_features=1024, bias=False)
        (1): BatchNorm1d(1024, eps=1e-05, momentum=0.1, affine=True, track_running_stats=True)
        (2): ReLU()
        (3): Dropout(p=0.2, inplace=False)
        (4): Linear(in_features=1024, out_features=1024, bias=False)
        (5): BatchNorm1d(1024, eps=1e-05, momentum=0.1, affine=True, track_running_stats=True)
        (6): ReLU()
        (7): Dropout(p=0.2, inplace=False)
        (8): Linear(in_features=1024, out_features=1024, bias=False)
        (9): BatchNorm1d(1024, eps=1e-05, momentum=0.1, affine=True, track_running_stats=True)
        (10): ReLU()
        (11): Linear(in_features=1024, out_features=128, bias=False)
        (12): BatchNorm1d(128, eps=1e-05, momentum=0.1, affine=False, track_running_stats=True)
      )
    )
    (1): FCN(
      (ffn): Sequential(
        (0): Linear(in_features=59, out_features=1024, bias=False)
        (1): BatchNorm1d(1024, eps=1e-05, momentum=0.1, affine=True, track_running_stats=True)
        (2): ReLU()
        (3): Dropout(p=0.2, inplace=False)
        (4): Linear(in_features=1024, out_features=1024, bias=False)
        (5): BatchNorm1d(1024, eps=1e-05, momentum=0.1, affine=True, track_running_stats=True)
        (6): ReLU()
        (7): Dropout(p=0.2, inplace=False)
        (8): Linear(in_features=1024, out_features=1024, bias=False)
        (9): BatchNorm1d(1024, eps=1e-05, momentum=0.1, affine=True, track_running_stats=True)
        (10): ReLU()
        (11): Linear(in_features=1024, out_features=128, bias=False)
        (12): BatchNorm1d(128, eps=1e-05, momentum=0.1, affine=False, track_running_stats=True)
      )
    )
  )
  (target_encoder): ModuleList(
    (0): FCN(
      (ffn): Sequential(
        (0): Linear(in_features=20, out_features=1024, bias=False)
        (1): BatchNorm1d(1024, eps=1e-05, momentum=0.1, affine=True, track_running_stats=True)
        (2): ReLU()
        (3): Dropout(p=0.2, inplace=False)
        (4): Linear(in_features=1024, out_features=1024, bias=False)
        (5): BatchNorm1d(1024, eps=1e-05, momentum=0.1, affine=True, track_running_stats=True)
        (6): ReLU()
        (7): Dropout(p=0.2, inplace=False)
        (8): Linear(in_features=1024, out_features=1024, bias=False)
        (9): BatchNorm1d(1024, eps=1e-05, momentum=0.1, affine=True, track_running_stats=True)
        (10): ReLU()
        (11): Linear(in_features=1024, out_features=128, bias=False)
        (12): BatchNorm1d(128, eps=1e-05, momentum=0.1, affine=False, track_running_stats=True)
      )
    )
    (1): FCN(
      (ffn): Sequential(
        (0): Linear(in_features=59, out_features=1024, bias=False)
        (1): BatchNorm1d(1024, eps=1e-05, momentum=0.1, affine=True, track_running_stats=True)
        (2): ReLU()
        (3): Dropout(p=0.2, inplace=False)
        (4): Linear(in_features=1024, out_features=1024, bias=False)
        (5): BatchNorm1d(1024, eps=1e-05, momentum=0.1, affine=True, track_running_stats=True)
        (6): ReLU()
        (7): Dropout(p=0.2, inplace=False)
        (8): Linear(in_features=1024, out_features=1024, bias=False)
        (9): BatchNorm1d(1024, eps=1e-05, momentum=0.1, affine=True, track_running_stats=True)
        (10): ReLU()
        (11): Linear(in_features=1024, out_features=128, bias=False)
        (12): BatchNorm1d(128, eps=1e-05, momentum=0.1, affine=False, track_running_stats=True)
      )
    )
  )
  (cross_view_decoder): ModuleList(
    (0-1): 2 x MLP(
      (mlp): Sequential(
        (0): Linear(in_features=128, out_features=512, bias=True)
        (1): ReLU()
        (2): Linear(in_features=512, out_features=128, bias=True)
      )
    )
  )
  (cl): ContrastiveLoss()
  (ncl): DenoiseContrastiveLoss()
)
Adam (
Parameter Group 0
    amsgrad: False
    betas: (0.9, 0.99)
    capturable: False
    differentiable: False
    eps: 1e-08
    foreach: None
    fused: None
    lr: 0.002
    maximize: False
    weight_decay: 0
)

>> Start training 0-th initial, seed: 1,
Batch size: 1024
…
encoder_dim=[[20,
1024,
1024,
1024,
128],
[59,
1024,
1024,
1024,
128]],
epochs=200,
fp_ratio=0.5,
lr=0.002,
min_blr=0.0005,
min_lr=0.002,
missing_rate=0.0,
momentum=0.98,
n_classes=15,
n_sample=4485,
n_views=2,
num_workers=1,
output_dir='./output/Scene15/Scene15_msrt_0.0_tau_0.5_bs_1024_blr_0.0005',
pin_mem=True,
print_freq=50,
save_ckpt=False,
seed=1,
singular_thresh=0.2,
start_epoch=0,
start_rectify_epoch=20,
temperature=0.5,
train_id=0,
train_time=5,
use_divide=False,
warmup_epochs=20,
weight_decay=0)
OursModel(
  (online_encoder): ModuleList(
    (0): FCN(
      (ffn): Sequential(
        (0): Linear(in_features=20, out_features=1024, bias=False)
        (1): BatchNorm1d(1024, eps=1e-05, momentum=0.1, affine=True, track_running_stats=True)
        (2): ReLU()
        (3): Dropout(p=0.2, inplace=False)
        (4): Linear(in_features=1024, out_features=1024, bias=False)
        (5): BatchNorm1d(1024, eps=1e-05, momentum=0.1, affine=True, track_running_stats=True)
        (6): ReLU()
        (7): Dropout(p=0.2, inplace=False)
        (8): Linear(in_features=1024, out_features=1024, bias=False)
        (9): BatchNorm1d(1024, eps=1e-05, momentum=0.1, affine=True, track_running_stats=True)
        (10): ReLU()
        (11): Linear(in_features=1024, out_features=128, bias=False)
        (12): BatchNorm1d(128, eps=1e-05, momentum=0.1, affine=False, track_running_stats=True)
      )
    )
    (1): FCN(
      (ffn): Sequential(
        (0): Linear(in_features=59, out_features=1024, bias=False)
        (1): BatchNorm1d(1024, eps=1e-05, momentum=0.1, affine=True, track_running_stats=True)
        (2): ReLU()
        (3): Dropout(p=0.2, inplace=False)
        (4): Linear(in_features=1024, out_features=1024, bias=False)
        (5): BatchNorm1d(1024, eps=1e-05, momentum=0.1, affine=True, track_running_stats=True)
        (6): ReLU()
        (7): Dropout(p=0.2, inplace=False)
        (8): Linear(in_features=1024, out_features=1024, bias=False)
        (9): BatchNorm1d(1024, eps=1e-05, momentum=0.1, affine=True, track_running_stats=True)
        (10): ReLU()
        (11): Linear(in_features=1024, out_features=128, bias=False)
        (12): BatchNorm1d(128, eps=1e-05, momentum=0.1, affine=False, track_running_stats=True)
      )
    )
  )
  (target_encoder): ModuleList(
    (0): FCN(
      (ffn): Sequential(
        (0): Linear(in_features=20, out_features=1024, bias=False)
        (1): BatchNorm1d(1024, eps=1e-05, momentum=0.1, affine=True, track_running_stats=True)
        (2): ReLU()
        (3): Dropout(p=0.2, inplace=False)
        (4): Linear(in_features=1024, out_features=1024, bias=False)
        (5): BatchNorm1d(1024, eps=1e-05, momentum=0.1, affine=True, track_running_stats=True)
        (6): ReLU()
        (7): Dropout(p=0.2, inplace=False)
        (8): Linear(in_features=1024, out_features=1024, bias=False)
        (9): BatchNorm1d(1024, eps=1e-05, momentum=0.1, affine=True, track_running_stats=True)
        (10): ReLU()
        (11): Linear(in_features=1024, out_features=128, bias=False)
        (12): BatchNorm1d(128, eps=1e-05, momentum=0.1, affine=False, track_running_stats=True)
      )
    )
    (1): FCN(
      (ffn): Sequential(
        (0): Linear(in_features=59, out_features=1024, bias=False)
        (1): BatchNorm1d(1024, eps=1e-05, momentum=0.1, affine=True, track_running_stats=True)
        (2): ReLU()
        (3): Dropout(p=0.2, inplace=False)
        (4): Linear(in_features=1024, out_features=1024, bias=False)
        (5): BatchNorm1d(1024, eps=1e-05, momentum=0.1, affine=True, track_running_stats=True)
        (6): ReLU()
        (7): Dropout(p=0.2, inplace=False)
        (8): Linear(in_features=1024, out_features=1024, bias=False)
        (9): BatchNorm1d(1024, eps=1e-05, momentum=0.1, affine=True, track_running_stats=True)
        (10): ReLU()
        (11): Linear(in_features=1024, out_features=128, bias=False)
        (12): BatchNorm1d(128, eps=1e-05, momentum=0.1, affine=False, track_running_stats=True)
      )
    )
  )
  (cross_view_decoder): ModuleList(
    (0): MLP(
      (mlp): Sequential(
        (0): Linear(in_features=128, out_features=512, bias=True)
        (1): ReLU()
        (2): Linear(in_features=512, out_features=128, bias=True)
      )
    )
    (1): MLP(
      (mlp): Sequential(
        (0): Linear(in_features=128, out_features=512, bias=True)
        (1): ReLU()
        (2): Linear(in_features=512, out_features=128, bias=True)
      )
    )
  )
  (cl): ContrastiveLoss()
  (ncl): DenoiseContrastiveLoss()
)
Adam (
Parameter Group 0
    amsgrad: False
    betas: (0.9, 0.99)
    capturable: False
    differentiable: False
    eps: 1e-08
    foreach: None
    fused: False
    lr: 0.002
    maximize: False
    weight_decay: 0
)

>> Start training 0-th initial, seed: 1,
Epoch 49 K-means: NMI = 0.3902 ARI = 0.2284 F = 0.2831 ACC = 0.3650
…
