…
encoder_dim=[[20,
1024,
1024,
1024,
128],
[59,
1024,
1024,
1024,
128]],
epochs=200,
fp_ratio=0.5,
lr=0.002,
min_blr=0.0005,
min_lr=0.002,
missing_rate=0.0,
momentum=0.98,
n_classes=15,
n_sample=4485,
n_views=2,
num_workers=1,
output_dir='./output/Scene15/Scene15_msrt_0.0_tau_0.5_bs_1024_blr_0.0005',
pin_mem=True,
print_freq=50,
save_ckpt=False,
seed=1,
singular_thresh=0.2,
start_epoch=0,
start_rectify_epoch=20,
temperature=0.5,
train_id=0,
train_time=5,
use_divide=False,
warmup_epochs=20,
weight_decay=0)
OursModel(
  (online_encoder): ModuleList(
    (0): FCN(
      (ffn): Sequential(
        (0): Linear(in_features=20, out_features=1024, bias=False)
        (1): BatchNorm1d(1024, eps=1e-05, momentum=0.1, affine=True, track_running_stats=True)
        (2): ReLU()
        (3): Dropout(p=0.2, inplace=False)
        (4): Linear(in_features=1024, out_features=1024, bias=False)
        (5): BatchNorm1d(1024, eps=1e-05, momentum=0.1, affine=True, track_running_stats=True)
        (6): ReLU()
        (7): Dropout(p=0.2, inplace=False)
        (8): Linear(in_features=1024, out_features=1024, bias=False)
        (9): BatchNorm1d(1024, eps=1e-05, momentum=0.1, affine=True, track_running_stats=True)
        (10): ReLU()
        (11): Linear(in_features=1024, out_features=128, bias=False)
        (12): BatchNorm1d(128, eps=1e-05, momentum=0.1, affine=False, track_running_stats=True)
      )
    )
    (1): FCN(
      (ffn): Sequential(
        (0): Linear(in_features=59, out_features=1024, bias=False)
        (1): BatchNorm1d(1024, eps=1e-05, momentum=0.1, affine=True, track_running_stats=True)
        (2): ReLU()
        (3): Dropout(p=0.2, inplace=False)
        (4): Linear(in_features=1024, out_features=1024, bias=False)
        (5): BatchNorm1d(1024, eps=1e-05, momentum=0.1, affine=True, track_running_stats=True)
        (6): ReLU()
        (7): Dropout(p=0.2, inplace=False)
        (8): Linear(in_features=1024, out_features=1024, bias=False)
        (9): BatchNorm1d(1024, eps=1e-05, momentum=0.1, affine=True, track_running_stats=True)
        (10): ReLU()
        (11): Linear(in_features=1024, out_features=128, bias=False)
        (12): BatchNorm1d(128, eps=1e-05, momentum=0.1, affine=False, track_running_stats=True)
      )
    )
  )
  (target_encoder): ModuleList(
    (0): FCN(
      (ffn): Sequential(
        (0): Linear(in_features=20, out_features=1024, bias=False)
        (1): BatchNorm1d(1024, eps=1e-05, momentum=0.1, affine=True, track_running_stats=True)
        (2): ReLU()
        (3): Dropout(p=0.2, inplace=False)
        (4): Linear(in_features=1024, out_features=1024, bias=False)
        (5): BatchNorm1d(1024, eps=1e-05, momentum=0.1, affine=True, track_running_stats=True)
        (6): ReLU()
        (7): Dropout(p=0.2, inplace=False)
        (8): Linear(in_features=1024, out_features=1024, bias=False)
        (9): BatchNorm1d(1024, eps=1e-05, momentum=0.1, affine=True, track_running_stats=True)
        (10): ReLU()
        (11): Linear(in_features=1024, out_features=128, bias=False)
        (12): BatchNorm1d(128, eps=1e-05, momentum=0.1, affine=False, track_running_stats=True)
      )
    )
    (1): FCN(
      (ffn): Sequential(
        (0): Linear(in_features=59, out_features=1024, bias=False)
        (1): BatchNorm1d(1024, eps=1e-05, momentum=0.1, affine=True, track_running_stats=True)
        (2): ReLU()
        (3): Dropout(p=0.2, inplace=False)
        (4): Linear(in_features=1024, out_features=1024, bias=False)
        (5): BatchNorm1d(1024, eps=1e-05, momentum=0.1, affine=True, track_running_stats=True)
        (6): ReLU()
        (7): Dropout(p=0.2, inplace=False)
        (8): Linear(in_features=1024, out_features=1024, bias=False)
        (9): BatchNorm1d(1024, eps=1e-05, momentum=0.1, affine=True, track_running_stats=True)
        (10): ReLU()
        (11): Linear(in_features=1024, out_features=128, bias=False)
        (12): BatchNorm1d(128, eps=1e-05, momentum=0.1, affine=False, track_running_stats=True)
      )
    )
  )
  (cross_view_decoder): ModuleList(
    (0-1): 2 x MLP(
      (mlp): Sequential(
        (0): Linear(in_features=128, out_features=512, bias=True)
        (1): ReLU()
        (2): Linear(in_features=512, out_features=128, bias=True)
      )
    )
  )
  (cl): ContrastiveLoss()
  (ncl): DenoiseContrastiveLoss()
)
Adam (
Parameter Group 0
    amsgrad: False
    betas: (0.9, 0.99)
    capturable: False
    differentiable: False
    eps: 1e-08
    foreach: None
    fused: None
    lr: 0.002
    maximize: False
    weight_decay: 0
)

>> Start training 0-th initial, seed: 1,
Batch size: 1024
…
encoder_dim=[[20,
1024,
1024,
1024,
128],
[59,
1024,
1024,
1024,
128]],
epochs=200,
fp_ratio=0.5,
lr=0.002,
min_blr=0.0005,
min_lr=0.002,
missing_rate=0.0,
momentum=0.98,
n_classes=15,
n_sample=4485,
n_views=2,
num_workers=1,
output_dir='./output/Scene15/Scene15_msrt_0.0_tau_0.5_bs_1024_blr_0.0005',
pin_mem=True,
print_freq=50,
save_ckpt=False,
seed=1,
singular_thresh=0.2,
start_epoch=0,
start_rectify_epoch=20,
temperature=0.5,
train_id=0,
train_time=5,
use_divide=False,
warmup_epochs=20,
weight_decay=0)
OursModel(
  (online_encoder): ModuleList(
    (0): FCN(
      (ffn): Sequential(
        (0): Linear(in_features=20, out_features=1024, bias=False)
        (1): BatchNorm1d(1024, eps=1e-05, momentum=0.1, affine=True, track_running_stats=True)
        (2): ReLU()
        (3): Dropout(p=0.2, inplace=False)
        (4): Linear(in_features=1024, out_features=1024, bias=False)
        (5): BatchNorm1d(1024, eps=1e-05, momentum=0.1, affine=True, track_running_stats=True)
        (6): ReLU()
        (7): Dropout(p=0.2, inplace=False)
        (8): Linear(in_features=1024, out_features=1024, bias=False)
        (9): BatchNorm1d(1024, eps=1e-05, momentum=0.1, affine=True, track_running_stats=True)
        (10): ReLU()
        (11): Linear(in_features=1024, out_features=128, bias=False)
        (12): BatchNorm1d(128, eps=1e-05, momentum=0.1, affine=False, track_running_stats=True)
      )
    )
    (1): FCN(
      (ffn): Sequential(
        (0): Linear(in_features=59, out_features=1024, bias=False)
        (1): BatchNorm1d(1024, eps=1e-05, momentum=0.1, affine=True, track_running_stats=True)
        (2): ReLU()
        (3): Dropout(p=0.2, inplace=False)
        (4): Linear(in_features=1024, out_features=1024, bias=False)
        (5): BatchNorm1d(1024, eps=1e-05, momentum=0.1, affine=True, track_running_stats=True)
        (6): ReLU()
        (7): Dropout(p=0.2, inplace=False)
        (8): Linear(in_features=1024, out_features=1024, bias=False)
        (9): BatchNorm1d(1024, eps=1e-05, momentum=0.1, affine=True, track_running_stats=True)
        (10): ReLU()
        (11): Linear(in_features=1024, out_features=128, bias=False)
        (12): BatchNorm1d(128, eps=1e-05, momentum=0.1, affine=False, track_running_stats=True)
      )
    )
  )
  (target_encoder): ModuleList(
    (0): FCN(
      (ffn): Sequential(
        (0): Linear(in_features=20, out_features=1024, bias=False)
        (1): BatchNorm1d(1024, eps=1e-05, momentum=0.1, affine=True, track_running_stats=True)
        (2): ReLU()
        (3): Dropout(p=0.2, inplace=False)
        (4): Linear(in_features=1024, out_features=1024, bias=False)
        (5): BatchNorm1d(1024, eps=1e-05, momentum=0.1, affine=True, track_running_stats=True)
        (6): ReLU()
        (7): Dropout(p=0.2, inplace=False)
        (8): Linear(in_features=1024, out_features=1024, bias=False)
        (9): BatchNorm1d(1024, eps=1e-05, momentum=0.1, affine=True, track_running_stats=True)
        (10): ReLU()
        (11): Linear(in_features=1024, out_features=128, bias=False)
        (12): BatchNorm1d(128, eps=1e-05, momentum=0.1, affine=False, track_running_stats=True)
      )
    )
    (1): FCN(
      (ffn): Sequential(
        (0): Linear(in_features=59, out_features=1024, bias=False)
        (1): BatchNorm1d(1024, eps=1e-05, momentum=0.1, affine=True, track_running_stats=True)
        (2): ReLU()
        (3): Dropout(p=0.2, inplace=False)
        (4): Linear(in_features=1024, out_features=1024, bias=False)
        (5): BatchNorm1d(1024, eps=1e-05, momentum=0.1, affine=True, track_running_stats=True)
        (6): ReLU()
        (7): Dropout(p=0.2, inplace=False)
        (8): Linear(in_features=1024, out_features=1024, bias=False)
        (9): BatchNorm1d(1024, eps=1e-05, momentum=0.1, affine=True, track_running_stats=True)
        (10): ReLU()
        (11): Linear(in_features=1024, out_features=128, bias=False)
        (12): BatchNorm1d(128, eps=1e-05, momentum=0.1, affine=False, track_running_stats=True)
      )
    )
  )
  (cross_view_decoder): ModuleList(
    (0): MLP(
      (mlp): Sequential(
        (0): Linear(in_features=128, out_features=512, bias=True)
        (1): ReLU()
        (2): Linear(in_features=512, out_features=128, bias=True)
      )
    )
    (1): MLP(
      (mlp): Sequential(
        (0): Linear(in_features=128, out_features=512, bias=True)
        (1): ReLU()
        (2): Linear(in_features=512, out_features=128, bias=True)
      )
    )
  )
  (cl): ContrastiveLoss()
  (ncl): DenoiseContrastiveLoss()
)
Adam (
Parameter Group 0
    amsgrad: False
    betas: (0.9, 0.99)
    capturable: False
    differentiable: False
    eps: 1e-08
    foreach: None
    fused: False
    lr: 0.002
    maximize: False
    weight_decay: 0
)

>> Start training 0-th initial, seed: 1,
Epoch 49 K-means: NMI = 0.3902 ARI = 0.2284 F = 0.2831 ACC = 0.3650
…
1024,
1024,
128],
[40,
1024,
1024,
1024,
128]],
epochs=200,
fp_ratio=0.0,
lr=0.002,
min_blr=0.0005,
min_lr=0.002,
missing_rate=0.0,
momentum=0.98,
n_classes=21,
n_sample=2100,
n_views=2,
noise_ratio=0.0,
num_workers=1,
output_dir='./output/LandUse21/LandUse21_msrt_0.0_tau_0.5_bs_1024_blr_0.0005',
pin_mem=True,
print_freq=10,
save_ckpt=False,
seed=1,
singular_thresh=0.2,
start_epoch=0,
start_rectify_epoch=20,
temperature=0.5,
train_id=0,
train_time=1,
use_divide=True,
warmup_epochs=20,
weight_decay=0)
DivideModel(
  (online_encoder): ModuleList(
    (0): FCN(
      (ffn): Sequential(
        (0): Linear(in_features=59, out_features=1024, bias=False)
        (1): BatchNorm1d(1024, eps=1e-05, momentum=0.1, affine=True, track_running_stats=True)
        (2): ReLU()
        (3): Dropout(p=0.2, inplace=False)
        (4): Linear(in_features=1024, out_features=1024, bias=False)
        (5): BatchNorm1d(1024, eps=1e-05, momentum=0.1, affine=True, track_running_stats=True)
        (6): ReLU()
        (7): Dropout(p=0.2, inplace=False)
        (8): Linear(in_features=1024, out_features=1024, bias=False)
        (9): BatchNorm1d(1024, eps=1e-05, momentum=0.1, affine=True, track_running_stats=True)
        (10): ReLU()
        (11): Linear(in_features=1024, out_features=128, bias=False)
        (12): BatchNorm1d(128, eps=1e-05, momentum=0.1, affine=False, track_running_stats=True)
      )
    )
    (1): FCN(
      (ffn): Sequential(
        (0): Linear(in_features=40, out_features=1024, bias=False)
        (1): BatchNorm1d(1024, eps=1e-05, momentum=0.1, affine=True, track_running_stats=True)
        (2): ReLU()
        (3): Dropout(p=0.2, inplace=False)
        (4): Linear(in_features=1024, out_features=1024, bias=False)
        (5): BatchNorm1d(1024, eps=1e-05, momentum=0.1, affine=True, track_running_stats=True)
        (6): ReLU()
        (7): Dropout(p=0.2, inplace=False)
        (8): Linear(in_features=1024, out_features=1024, bias=False)
        (9): BatchNorm1d(1024, eps=1e-05, momentum=0.1, affine=True, track_running_stats=True)
        (10): ReLU()
        (11): Linear(in_features=1024, out_features=128, bias=False)
        (12): BatchNorm1d(128, eps=1e-05, momentum=0.1, affine=False, track_running_stats=True)
      )
    )
  )
  (target_encoder): ModuleList(
    (0): FCN(
      (ffn): Sequential(
        (0): Linear(in_features=59, out_features=1024, bias=False)
        (1): BatchNorm1d(1024, eps=1e-05, momentum=0.1, affine=True, track_running_stats=True)
        (2): ReLU()
        (3): Dropout(p=0.2, inplace=False)
        (4): Linear(in_features=1024, out_features=1024, bias=False)
        (5): BatchNorm1d(1024, eps=1e-05, momentum=0.1, affine=True, track_running_stats=True)
        (6): ReLU()
        (7): Dropout(p=0.2, inplace=False)
        (8): Linear(in_features=1024, out_features=1024, bias=False)
        (9): BatchNorm1d(1024, eps=1e-05, momentum=0.1, affine=True, track_running_stats=True)
        (10): ReLU()
        (11): Linear(in_features=1024, out_features=128, bias=False)
        (12): BatchNorm1d(128, eps=1e-05, momentum=0.1, affine=False, track_running_stats=True)
      )
    )
    (1): FCN(
      (ffn): Sequential(
        (0): Linear(in_features=40, out_features=1024, bias=False)
        (1): BatchNorm1d(1024, eps=1e-05, momentum=0.1, affine=True, track_running_stats=True)
        (2): ReLU()
        (3): Dropout(p=0.2, inplace=False)
        (4): Linear(in_features=1024, out_features=1024, bias=False)
        (5): BatchNorm1d(1024, eps=1e-05, momentum=0.1, affine=True, track_running_stats=True)
        (6): ReLU()
        (7): Dropout(p=0.2, inplace=False)
        (8): Linear(in_features=1024, out_features=1024, bias=False)
        (9): BatchNorm1d(1024, eps=1e-05, momentum=0.1, affine=True, track_running_stats=True)
        (10): ReLU()
        (11): Linear(in_features=1024, out_features=128, bias=False)
        (12): BatchNorm1d(128, eps=1e-05, momentum=0.1, affine=False, track_running_stats=True)
      )
    )
  )
  (cross_view_decoder): ModuleList(
    (0-1): 2 x MLP(
      (mlp): Sequential(
        (0): Linear(in_features=128, out_features=512, bias=True)
        (1): ReLU()
        (2): Linear(in_features=512, out_features=128, bias=True)
      )
    )
  )
  (cl): ContrastiveLoss()
  (ncl): DenoiseContrastiveLoss()
)
Adam (
Parameter Group 0
    amsgrad: False
    betas: (0.9, 0.99)
    capturable: False
    differentiable: False
    eps: 1e-08
    foreach: None
    fused: None
    lr: 0.002
    maximize: False
    weight_decay: 0
)

>> Start training 0-th initial, seed: 1,
Epoch 9 K-means: NMI = 0.3366 ARI = 0.1406 F = 0.1860 ACC = 0.2938
…
256],
[59,
1024,
1024,
1024,
256]],
epochs=200,
fp_ratio=0.0,
lr=0.002,
min_blr=0.0005,
min_lr=0.002,
missing_rate=0.5,
momentum=0.98,
n_classes=15,
n_sample=4485,
n_views=2,
noise_ratio=0.0,
num_workers=1,
output_dir='./output/Scene15/Scene15_msrt_0.5_tau_0.5_bs_1024_blr_0.0005',
pin_mem=True,
print_freq=10,
save_ckpt=False,
seed=1,
singular_thresh=0.2,
start_epoch=0,
start_rectify_epoch=20,
temperature=0.5,
train_id=0,
train_time=1,
use_candy=False,
use_divide=False,
warmup_epochs=20,
weight_decay=0)
NoisyModel(
  (online_encoder): ModuleList(
    (0): FCN(
      (ffn): Sequential(
        (0): Linear(in_features=20, out_features=1024, bias=False)
        (1): BatchNorm1d(1024, eps=1e-05, momentum=0.1, affine=True, track_running_stats=True)
        (2): ReLU()
        (3): Dropout(p=0.2, inplace=False)
        (4): Linear(in_features=1024, out_features=1024, bias=False)
        (5): BatchNorm1d(1024, eps=1e-05, momentum=0.1, affine=True, track_running_stats=True)
        (6): ReLU()
        (7): Dropout(p=0.2, inplace=False)
        (8): Linear(in_features=1024, out_features=1024, bias=False)
        (9): BatchNorm1d(1024, eps=1e-05, momentum=0.1, affine=True, track_running_stats=True)
        (10): ReLU()
        (11): Linear(in_features=1024, out_features=256, bias=False)
        (12): BatchNorm1d(256, eps=1e-05, momentum=0.1, affine=False, track_running_stats=True)
      )
    )
    (1): FCN(
      (ffn): Sequential(
        (0): Linear(in_features=59, out_features=1024, bias=False)
        (1): BatchNorm1d(1024, eps=1e-05, momentum=0.1, affine=True, track_running_stats=True)
        (2): ReLU()
        (3): Dropout(p=0.2, inplace=False)
        (4): Linear(in_features=1024, out_features=1024, bias=False)
        (5): BatchNorm1d(1024, eps=1e-05, momentum=0.1, affine=True, track_running_stats=True)
        (6): ReLU()
        (7): Dropout(p=0.2, inplace=False)
        (8): Linear(in_features=1024, out_features=1024, bias=False)
        (9): BatchNorm1d(1024, eps=1e-05, momentum=0.1, affine=True, track_running_stats=True)
        (10): ReLU()
        (11): Linear(in_features=1024, out_features=256, bias=False)
        (12): BatchNorm1d(256, eps=1e-05, momentum=0.1, affine=False, track_running_stats=True)
      )
    )
  )
  (target_encoder): ModuleList(
    (0): FCN(
      (ffn): Sequential(
        (0): Linear(in_features=20, out_features=1024, bias=False)
        (1): BatchNorm1d(1024, eps=1e-05, momentum=0.1, affine=True, track_running_stats=True)
        (2): ReLU()
        (3): Dropout(p=0.2, inplace=False)
        (4): Linear(in_features=1024, out_features=1024, bias=False)
        (5): BatchNorm1d(1024, eps=1e-05, momentum=0.1, affine=True, track_running_stats=True)
        (6): ReLU()
        (7): Dropout(p=0.2, inplace=False)
        (8): Linear(in_features=1024, out_features=1024, bias=False)
        (9): BatchNorm1d(1024, eps=1e-05, momentum=0.1, affine=True, track_running_stats=True)
        (10): ReLU()
        (11): Linear(in_features=1024, out_features=256, bias=False)
        (12): BatchNorm1d(256, eps=1e-05, momentum=0.1, affine=False, track_running_stats=True)
      )
    )
    (1): FCN(
      (ffn): Sequential(
        (0): Linear(in_features=59, out_features=1024, bias=False)
        (1): BatchNorm1d(1024, eps=1e-05, momentum=0.1, affine=True, track_running_stats=True)
        (2): ReLU()
        (3): Dropout(p=0.2, inplace=False)
        (4): Linear(in_features=1024, out_features=1024, bias=False)
        (5): BatchNorm1d(1024, eps=1e-05, momentum=0.1, affine=True, track_running_stats=True)
        (6): ReLU()
        (7): Dropout(p=0.2, inplace=False)
        (8): Linear(in_features=1024, out_features=1024, bias=False)
        (9): BatchNorm1d(1024, eps=1e-05, momentum=0.1, affine=True, track_running_stats=True)
        (10): ReLU()
        (11): Linear(in_features=1024, out_features=256, bias=False)
        (12): BatchNorm1d(256, eps=1e-05, momentum=0.1, affine=False, track_running_stats=True)
      )
    )
  )
  (cross_view_decoder): ModuleList(
    (0-1): 2 x MLP(
      (mlp): Sequential(
        (0): Linear(in_features=256, out_features=1024, bias=True)
        (1): ReLU()
        (2): Linear(in_features=1024, out_features=256, bias=True)
      )
    )
  )
  (cl): ContrastiveLoss()
  (ncl): DenoiseContrastiveLoss()
)
Adam (
Parameter Group 0
    amsgrad: False
    betas: (0.9, 0.99)
    capturable: False
    differentiable: False
    eps: 1e-08
    foreach: None
    fused: None
    lr: 0.002
    maximize: False
    weight_decay: 0
)

>> Start training 0-th initial, seed: 1,
Epoch 9 K-means: NMI = 0.3903 ARI = 0.2204 F = 0.2742 ACC = 0.3915
…
1024,
128],
[300,
1024,
1024,
1024,
128]],
epochs=200,
fp_ratio=0.0,
lr=0.002,
min_blr=0.0005,
min_lr=0.002,
missing_rate=0.0,
momentum=0.9,
n_classes=10,
n_sample=9000,
n_views=2,
noise_ratio=0.0,
num_workers=1,
output_dir='output/NUSWIDE/NUSWIDE_msrt_0.0_tau_0.5_bs_1024_blr_0.0005',
pin_mem=True,
print_freq=10,
save_ckpt=False,
seed=1,
singular_thresh=0.2,
start_epoch=0,
start_rectify_epoch=20,
temperature=0.5,
train_id=0,
train_time=1,
use_candy=False,
use_divide=True,
warmup_epochs=20,
weight_decay=0)
DivideModel(
  (online_encoder): ModuleList(
    (0): FCN(
      (ffn): Sequential(
        (0): Linear(in_features=4096, out_features=1024, bias=False)
        (1): BatchNorm1d(1024, eps=1e-05, momentum=0.1, affine=True, track_running_stats=True)
        (2): ReLU()
        (3): Dropout(p=0.4, inplace=False)
        (4): Linear(in_features=1024, out_features=1024, bias=False)
        (5): BatchNorm1d(1024, eps=1e-05, momentum=0.1, affine=True, track_running_stats=True)
        (6): ReLU()
        (7): Dropout(p=0.4, inplace=False)
        (8): Linear(in_features=1024, out_features=1024, bias=False)
        (9): BatchNorm1d(1024, eps=1e-05, momentum=0.1, affine=True, track_running_stats=True)
        (10): ReLU()
        (11): Linear(in_features=1024, out_features=128, bias=False)
        (12): BatchNorm1d(128, eps=1e-05, momentum=0.1, affine=False, track_running_stats=True)
      )
    )
    (1): FCN(
      (ffn): Sequential(
        (0): Linear(in_features=300, out_features=1024, bias=False)
        (1): BatchNorm1d(1024, eps=1e-05, momentum=0.1, affine=True, track_running_stats=True)
        (2): ReLU()
        (3): Dropout(p=0.4, inplace=False)
        (4): Linear(in_features=1024, out_features=1024, bias=False)
        (5): BatchNorm1d(1024, eps=1e-05, momentum=0.1, affine=True, track_running_stats=True)
        (6): ReLU()
        (7): Dropout(p=0.4, inplace=False)
        (8): Linear(in_features=1024, out_features=1024, bias=False)
        (9): BatchNorm1d(1024, eps=1e-05, momentum=0.1, affine=True, track_running_stats=True)
        (10): ReLU()
        (11): Linear(in_features=1024, out_features=128, bias=False)
        (12): BatchNorm1d(128, eps=1e-05, momentum=0.1, affine=False, track_running_stats=True)
      )
    )
  )
  (target_encoder): ModuleList(
    (0): FCN(
      (ffn): Sequential(
        (0): Linear(in_features=4096, out_features=1024, bias=False)
        (1): BatchNorm1d(1024, eps=1e-05, momentum=0.1, affine=True, track_running_stats=True)
        (2): ReLU()
        (3): Dropout(p=0.4, inplace=False)
        (4): Linear(in_features=1024, out_features=1024, bias=False)
        (5): BatchNorm1d(1024, eps=1e-05, momentum=0.1, affine=True, track_running_stats=True)
        (6): ReLU()
        (7): Dropout(p=0.4, inplace=False)
        (8): Linear(in_features=1024, out_features=1024, bias=False)
        (9): BatchNorm1d(1024, eps=1e-05, momentum=0.1, affine=True, track_running_stats=True)
        (10): ReLU()
        (11): Linear(in_features=1024, out_features=128, bias=False)
        (12): BatchNorm1d(128, eps=1e-05, momentum=0.1, affine=False, track_running_stats=True)
      )
    )
    (1): FCN(
      (ffn): Sequential(
        (0): Linear(in_features=300, out_features=1024, bias=False)
        (1): BatchNorm1d(1024, eps=1e-05, momentum=0.1, affine=True, track_running_stats=True)
        (2): ReLU()
        (3): Dropout(p=0.4, inplace=False)
        (4): Linear(in_features=1024, out_features=1024, bias=False)
        (5): BatchNorm1d(1024, eps=1e-05, momentum=0.1, affine=True, track_running_stats=True)
        (6): ReLU()
        (7): Dropout(p=0.4, inplace=False)
        (8): Linear(in_features=1024, out_features=1024, bias=False)
        (9): BatchNorm1d(1024, eps=1e-05, momentum=0.1, affine=True, track_running_stats=True)
        (10): ReLU()
        (11): Linear(in_features=1024, out_features=128, bias=False)
        (12): BatchNorm1d(128, eps=1e-05, momentum=0.1, affine=False, track_running_stats=True)
      )
    )
  )
  (cross_view_decoder): ModuleList(
    (0-1): 2 x MLP(
      (mlp): Sequential(
        (0): Linear(in_features=128, out_features=512, bias=True)
        (1): ReLU()
        (2): Linear(in_features=512, out_features=128, bias=True)
      )
    )
  )
  (cl): ContrastiveLoss()
  (ncl): DenoiseContrastiveLoss()
)
Adam (
Parameter Group 0
    amsgrad: False
    betas: (0.9, 0.99)
    capturable: False
    differentiable: False
    eps: 1e-08
    foreach: None
    fused: None
    lr: 0.002
    maximize: False
    weight_decay: 0
)

>> Start training 0-th initial, seed: 1,
Epoch 9 K-means: NMI = 0.4797 ARI = 0.4161 F = 0.4752 ACC = 0.6021
…
64],
[10,
128,
1024,
1024,
64]],
epochs=200,
fp_ratio=0.0,
lr=0.002,
min_blr=0.0005,
min_lr=0.002,
missing_rate=0.0,
momentum=0.98,
n_classes=6,
n_sample=18758,
n_views=2,
noise_ratio=0.0,
num_workers=1,
output_dir='output/Reuters/Reuters_msrt_0.0_tau_0.5_bs_1024_blr_0.0005',
pin_mem=True,
print_freq=10,
save_ckpt=False,
seed=1,
singular_thresh=0.2,
start_epoch=0,
start_rectify_epoch=20,
temperature=0.5,
train_id=0,
train_time=1,
use_candy=False,
use_divide=True,
warmup_epochs=20,
weight_decay=0)
DivideModel(
  (online_encoder): ModuleList(
    (0-1): 2 x FCN(
      (ffn): Sequential(
        (0): Linear(in_features=10, out_features=128, bias=False)
        (1): BatchNorm1d(128, eps=1e-05, momentum=0.1, affine=True, track_running_stats=True)
        (2): ReLU()
        (3): Dropout(p=0.5, inplace=False)
        (4): Linear(in_features=128, out_features=1024, bias=False)
        (5): BatchNorm1d(1024, eps=1e-05, momentum=0.1, affine=True, track_running_stats=True)
        (6): ReLU()
        (7): Dropout(p=0.5, inplace=False)
        (8): Linear(in_features=1024, out_features=1024, bias=False)
        (9): BatchNorm1d(1024, eps=1e-05, momentum=0.1, affine=True, track_running_stats=True)
        (10): ReLU()
        (11): Linear(in_features=1024, out_features=64, bias=False)
        (12): BatchNorm1d(64, eps=1e-05, momentum=0.1, affine=False, track_running_stats=True)
      )
    )
  )
  (target_encoder): ModuleList(
    (0-1): 2 x FCN(
      (ffn): Sequential(
        (0): Linear(in_features=10, out_features=128, bias=False)
        (1): BatchNorm1d(128, eps=1e-05, momentum=0.1, affine=True, track_running_stats=True)
        (2): ReLU()
        (3): Dropout(p=0.5, inplace=False)
        (4): Linear(in_features=128, out_features=1024, bias=False)
        (5): BatchNorm1d(1024, eps=1e-05, momentum=0.1, affine=True, track_running_stats=True)
        (6): ReLU()
        (7): Dropout(p=0.5, inplace=False)
        (8): Linear(in_features=1024, out_features=1024, bias=False)
        (9): BatchNorm1d(1024, eps=1e-05, momentum=0.1, affine=True, track_running_stats=True)
        (10): ReLU()
        (11): Linear(in_features=1024, out_features=64, bias=False)
        (12): BatchNorm1d(64, eps=1e-05, momentum=0.1, affine=False, track_running_stats=True)
      )
    )
  )
  (cross_view_decoder): ModuleList(
    (0-1): 2 x MLP(
      (mlp): Sequential(
        (0): Linear(in_features=64, out_features=256, bias=True)
        (1): ReLU()
        (2): Linear(in_features=256, out_features=64, bias=True)
      )
    )
  )
  (cl): ContrastiveLoss()
  (ncl): DenoiseContrastiveLoss()
)
Adam (
Parameter Group 0
    amsgrad: False
    betas: (0.9, 0.99)
    capturable: False
    differentiable: False
    eps: 1e-08
    foreach: None
    fused: None
    lr: 0.002
    maximize: False
    weight_decay: 0
)

>> Start training 0-th initial, seed: 1,
Epoch 9 K-means: NMI = 0.2478 ARI = 0.2019 F = 0.3628 ACC = 0.4443
…
256],
[59,
1024,
1024,
1024,
256]],
epochs=200,
fp_ratio=0.0,
lr=0.002,
min_blr=0.0005,
min_lr=0.002,
missing_rate=0.0,
momentum=0.98,
n_classes=15,
n_sample=4485,
n_views=2,
noise_ratio=0.0,
num_workers=1,
output_dir='./output/Scene15/Scene15_msrt_0.0_tau_0.5_bs_1024_blr_0.0005',
pin_mem=True,
print_freq=10,
save_ckpt=False,
seed=1,
singular_thresh=0.2,
start_epoch=0,
start_rectify_epoch=20,
temperature=0.5,
train_id=0,
train_time=1,
use_candy=True,
use_divide=False,
warmup_epochs=20,
weight_decay=0)
CandyModel(
  (online_encoder): ModuleList(
    (0): FCN(
      (ffn): Sequential(
        (0): Linear(in_features=20, out_features=1024, bias=False)
        (1): BatchNorm1d(1024, eps=1e-05, momentum=0.1, affine=True, track_running_stats=True)
        (2): ReLU()
        (3): Dropout(p=0.2, inplace=False)
        (4): Linear(in_features=1024, out_features=1024, bias=False)
        (5): BatchNorm1d(1024, eps=1e-05, momentum=0.1, affine=True, track_running_stats=True)
        (6): ReLU()
        (7): Dropout(p=0.2, inplace=False)
        (8): Linear(in_features=1024, out_features=1024, bias=False)
        (9): BatchNorm1d(1024, eps=1e-05, momentum=0.1, affine=True, track_running_stats=True)
        (10): ReLU()
        (11): Linear(in_features=1024, out_features=256, bias=False)
        (12): BatchNorm1d(256, eps=1e-05, momentum=0.1, affine=False, track_running_stats=True)
      )
    )
    (1): FCN(
      (ffn): Sequential(
        (0): Linear(in_features=59, out_features=1024, bias=False)
        (1): BatchNorm1d(1024, eps=1e-05, momentum=0.1, affine=True, track_running_stats=True)
        (2): ReLU()
        (3): Dropout(p=0.2, inplace=False)
        (4): Linear(in_features=1024, out_features=1024, bias=False)
        (5): BatchNorm1d(1024, eps=1e-05, momentum=0.1, affine=True, track_running_stats=True)
        (6): ReLU()
        (7): Dropout(p=0.2, inplace=False)
        (8): Linear(in_features=1024, out_features=1024, bias=False)
        (9): BatchNorm1d(1024, eps=1e-05, momentum=0.1, affine=True, track_running_stats=True)
        (10): ReLU()
        (11): Linear(in_features=1024, out_features=256, bias=False)
        (12): BatchNorm1d(256, eps=1e-05, momentum=0.1, affine=False, track_running_stats=True)
      )
    )
  )
  (target_encoder): ModuleList(
    (0): FCN(
      (ffn): Sequential(
        (0): Linear(in_features=20, out_features=1024, bias=False)
        (1): BatchNorm1d(1024, eps=1e-05, momentum=0.1, affine=True, track_running_stats=True)
        (2): ReLU()
        (3): Dropout(p=0.2, inplace=False)
        (4): Linear(in_features=1024, out_features=1024, bias=False)
        (5): BatchNorm1d(1024, eps=1e-05, momentum=0.1, affine=True, track_running_stats=True)
        (6): ReLU()
        (7): Dropout(p=0.2, inplace=False)
        (8): Linear(in_features=1024, out_features=1024, bias=False)
        (9): BatchNorm1d(1024, eps=1e-05, momentum=0.1, affine=True, track_running_stats=True)
        (10): ReLU()
        (11): Linear(in_features=1024, out_features=256, bias=False)
        (12): BatchNorm1d(256, eps=1e-05, momentum=0.1, affine=False, track_running_stats=True)
      )
    )
    (1): FCN(
      (ffn): Sequential(
        (0): Linear(in_features=59, out_features=1024, bias=False)
        (1): BatchNorm1d(1024, eps=1e-05, momentum=0.1, affine=True, track_running_stats=True)
        (2): ReLU()
        (3): Dropout(p=0.2, inplace=False)
        (4): Linear(in_features=1024, out_features=1024, bias=False)
        (5): BatchNorm1d(1024, eps=1e-05, momentum=0.1, affine=True, track_running_stats=True)
        (6): ReLU()
        (7): Dropout(p=0.2, inplace=False)
        (8): Linear(in_features=1024, out_features=1024, bias=False)
        (9): BatchNorm1d(1024, eps=1e-05, momentum=0.1, affine=True, track_running_stats=True)
        (10): ReLU()
        (11): Linear(in_features=1024, out_features=256, bias=False)
        (12): BatchNorm1d(256, eps=1e-05, momentum=0.1, affine=False, track_running_stats=True)
      )
    )
  )
  (cross_view_decoder): ModuleList(
    (0): MLP(
      (mlp): Sequential(
        (0): Linear(in_features=256, out_features=1024, bias=True)
        (1): ReLU()
        (2): Linear(in_features=1024, out_features=256, bias=True)
      )
    )
    (1): MLP(
      (mlp): Sequential(
        (0): Linear(in_features=256, out_features=1024, bias=True)
        (1): ReLU()
        (2): Linear(in_features=1024, out_features=256, bias=True)
      )
    )
  )
  (cl): ContrastiveLoss()
  (ncl): DenoiseContrastiveLoss()
  (dis): DistillLoss()
)
Adam (
Parameter Group 0
    amsgrad: False
    betas: (0.9, 0.99)
    capturable: False
    differentiable: False
    eps: 1e-08
    foreach: None
    fused: False
    lr: 0.002
    maximize: False
    weight_decay: 0
)

>> Start training 0-th initial, seed: 1,
…
512],
[59,
1024,
1024,
1024,
512]],
epochs=200,
fp_ratio=0.0,
lr=0.002,
min_blr=0.0005,
min_lr=0.002,
missing_rate=0.0,
momentum=0.98,
n_classes=15,
n_sample=4485,
n_views=2,
noise_ratio=0.0,
num_workers=1,
output_dir='./output/Scene15/Scene15_msrt_0.0_tau_0.5_bs_1024_blr_0.0005',
pin_mem=True,
print_freq=10,
save_ckpt=False,
seed=1,
singular_thresh=0.2,
start_epoch=0,
start_rectify_epoch=20,
temperature=0.5,
train_id=0,
train_time=1,
use_candy=False,
use_divide=False,
warmup_epochs=20,
weight_decay=0)
NoisyModel(
  (online_encoder): ModuleList(
    (0): FCN(
      (ffn): Sequential(
        (0): Linear(in_features=20, out_features=1024, bias=False)
        (1): BatchNorm1d(1024, eps=1e-05, momentum=0.1, affine=True, track_running_stats=True)
        (2): ReLU()
        (3): Dropout(p=0.2, inplace=False)
        (4): Linear(in_features=1024, out_features=1024, bias=False)
        (5): BatchNorm1d(1024, eps=1e-05, momentum=0.1, affine=True, track_running_stats=True)
        (6): ReLU()
        (7): Dropout(p=0.2, inplace=False)
        (8): Linear(in_features=1024, out_features=1024, bias=False)
        (9): BatchNorm1d(1024, eps=1e-05, momentum=0.1, affine=True, track_running_stats=True)
        (10): ReLU()
        (11): Linear(in_features=1024, out_features=512, bias=False)
        (12): BatchNorm1d(512, eps=1e-05, momentum=0.1, affine=False, track_running_stats=True)
      )
    )
    (1): FCN(
      (ffn): Sequential(
        (0): Linear(in_features=59, out_features=1024, bias=False)
        (1): BatchNorm1d(1024, eps=1e-05, momentum=0.1, affine=True, track_running_stats=True)
        (2): ReLU()
        (3): Dropout(p=0.2, inplace=False)
        (4): Linear(in_features=1024, out_features=1024, bias=False)
        (5): BatchNorm1d(1024, eps=1e-05, momentum=0.1, affine=True, track_running_stats=True)
        (6): ReLU()
        (7): Dropout(p=0.2, inplace=False)
        (8): Linear(in_features=1024, out_features=1024, bias=False)
        (9): BatchNorm1d(1024, eps=1e-05, momentum=0.1, affine=True, track_running_stats=True)
        (10): ReLU()
        (11): Linear(in_features=1024, out_features=512, bias=False)
        (12): BatchNorm1d(512, eps=1e-05, momentum=0.1, affine=False, track_running_stats=True)
      )
    )
  )
  (target_encoder): ModuleList(
    (0): FCN(
      (ffn): Sequential(
        (0): Linear(in_features=20, out_features=1024, bias=False)
        (1): BatchNorm1d(1024, eps=1e-05, momentum=0.1, affine=True, track_running_stats=True)
        (2): ReLU()
        (3): Dropout(p=0.2, inplace=False)
        (4): Linear(in_features=1024, out_features=1024, bias=False)
        (5): BatchNorm1d(1024, eps=1e-05, momentum=0.1, affine=True, track_running_stats=True)
        (6): ReLU()
        (7): Dropout(p=0.2, inplace=False)
        (8): Linear(in_features=1024, out_features=1024, bias=False)
        (9): BatchNorm1d(1024, eps=1e-05, momentum=0.1, affine=True, track_running_stats=True)
        (10): ReLU()
        (11): Linear(in_features=1024, out_features=512, bias=False)
        (12): BatchNorm1d(512, eps=1e-05, momentum=0.1, affine=False, track_running_stats=True)
      )
    )
    (1): FCN(
      (ffn): Sequential(
        (0): Linear(in_features=59, out_features=1024, bias=False)
        (1): BatchNorm1d(1024, eps=1e-05, momentum=0.1, affine=True, track_running_stats=True)
        (2): ReLU()
        (3): Dropout(p=0.2, inplace=False)
        (4): Linear(in_features=1024, out_features=1024, bias=False)
        (5): BatchNorm1d(1024, eps=1e-05, momentum=0.1, affine=True, track_running_stats=True)
        (6): ReLU()
        (7): Dropout(p=0.2, inplace=False)
        (8): Linear(in_features=1024, out_features=1024, bias=False)
        (9): BatchNorm1d(1024, eps=1e-05, momentum=0.1, affine=True, track_running_stats=True)
        (10): ReLU()
        (11): Linear(in_features=1024, out_features=512, bias=False)
        (12): BatchNorm1d(512, eps=1e-05, momentum=0.1, affine=False, track_running_stats=True)
      )
    )
  )
  (cross_view_decoder): ModuleList(
    (0): MLP(
      (mlp): Sequential(
        (0): Linear(in_features=512, out_features=2048, bias=True)
        (1): ReLU()
        (2): Linear(in_features=2048, out_features=512, bias=True)
      )
    )
    (1): MLP(
      (mlp): Sequential(
        (0): Linear(in_features=512, out_features=2048, bias=True)
        (1): ReLU()
        (2): Linear(in_features=2048, out_features=512, bias=True)
      )
    )
  )
  (cl): ContrastiveLoss()
  (ncl): DenoiseContrastiveLoss()
  (dis): DistillLoss()
)
Adam (
Parameter Group 0
    amsgrad: False
    betas: (0.9, 0.99)
    capturable: False
    differentiable: False
    eps: 1e-08
    foreach: None
    fused: False
    lr: 0.002
    maximize: False
    weight_decay: 0
)

>> Start training 0-th initial, seed: 1,
…
128],
[40,
1024,
1024,
1024,
128]],
epochs=200,
fp_ratio=0.0,
lr=0.002,
min_blr=0.0005,
min_lr=0.002,
missing_rate=0.0,
momentum=0.98,
n_classes=21,
n_sample=2100,
n_views=2,
noise_ratio=0.0,
num_workers=1,
output_dir='./output/LandUse21/LandUse21_msrt_0.0_tau_0.5_bs_1024_blr_0.0005',
pin_mem=True,
print_freq=10,
save_ckpt=False,
seed=1,
singular_thresh=0.2,
start_epoch=0,
start_rectify_epoch=20,
temperature=0.5,
train_id=0,
train_time=1,
use_candy=False,
use_divide=False,
warmup_epochs=20,
weight_decay=0)
NoisyModel(
  (online_encoder): ModuleList(
    (0): FCN(
      (ffn): Sequential(
        (0): Linear(in_features=59, out_features=1024, bias=False)
        (1): BatchNorm1d(1024, eps=1e-05, momentum=0.1, affine=True, track_running_stats=True)
        (2): ReLU()
        (3): Dropout(p=0.2, inplace=False)
        (4): Linear(in_features=1024, out_features=1024, bias=False)
        (5): BatchNorm1d(1024, eps=1e-05, momentum=0.1, affine=True, track_running_stats=True)
        (6): ReLU()
        (7): Dropout(p=0.2, inplace=False)
        (8): Linear(in_features=1024, out_features=1024, bias=False)
        (9): BatchNorm1d(1024, eps=1e-05, momentum=0.1, affine=True, track_running_stats=True)
        (10): ReLU()
        (11): Linear(in_features=1024, out_features=128, bias=False)
        (12): BatchNorm1d(128, eps=1e-05, momentum=0.1, affine=False, track_running_stats=True)
      )
    )
    (1): FCN(
      (ffn): Sequential(
        (0): Linear(in_features=40, out_features=1024, bias=False)
        (1): BatchNorm1d(1024, eps=1e-05, momentum=0.1, affine=True, track_running_stats=True)
        (2): ReLU()
        (3): Dropout(p=0.2, inplace=False)
        (4): Linear(in_features=1024, out_features=1024, bias=False)
        (5): BatchNorm1d(1024, eps=1e-05, momentum=0.1, affine=True, track_running_stats=True)
        (6): ReLU()
        (7): Dropout(p=0.2, inplace=False)
        (8): Linear(in_features=1024, out_features=1024, bias=False)
        (9): BatchNorm1d(1024, eps=1e-05, momentum=0.1, affine=True, track_running_stats=True)
        (10): ReLU()
        (11): Linear(in_features=1024, out_features=128, bias=False)
        (12): BatchNorm1d(128, eps=1e-05, momentum=0.1, affine=False, track_running_stats=True)
      )
    )
  )
  (target_encoder): ModuleList(
    (0): FCN(
      (ffn): Sequential(
        (0): Linear(in_features=59, out_features=1024, bias=False)
        (1): BatchNorm1d(1024, eps=1e-05, momentum=0.1, affine=True, track_running_stats=True)
        (2): ReLU()
        (3): Dropout(p=0.2, inplace=False)
        (4): Linear(in_features=1024, out_features=1024, bias=False)
        (5): BatchNorm1d(1024, eps=1e-05, momentum=0.1, affine=True, track_running_stats=True)
        (6): ReLU()
        (7): Dropout(p=0.2, inplace=False)
        (8): Linear(in_features=1024, out_features=1024, bias=False)
        (9): BatchNorm1d(1024, eps=1e-05, momentum=0.1, affine=True, track_running_stats=True)
        (10): ReLU()
        (11): Linear(in_features=1024, out_features=128, bias=False)
        (12): BatchNorm1d(128, eps=1e-05, momentum=0.1, affine=False, track_running_stats=True)
      )
    )
    (1): FCN(
      (ffn): Sequential(
        (0): Linear(in_features=40, out_features=1024, bias=False)
        (1): BatchNorm1d(1024, eps=1e-05, momentum=0.1, affine=True, track_running_stats=True)
        (2): ReLU()
        (3): Dropout(p=0.2, inplace=False)
        (4): Linear(in_features=1024, out_features=1024, bias=False)
        (5): BatchNorm1d(1024, eps=1e-05, momentum=0.1, affine=True, track_running_stats=True)
        (6): ReLU()
        (7): Dropout(p=0.2, inplace=False)
        (8): Linear(in_features=1024, out_features=1024, bias=False)
        (9): BatchNorm1d(1024, eps=1e-05, momentum=0.1, affine=True, track_running_stats=True)
        (10): ReLU()
        (11): Linear(in_features=1024, out_features=128, bias=False)
        (12): BatchNorm1d(128, eps=1e-05, momentum=0.1, affine=False, track_running_stats=True)
      )
    )
  )
  (cross_view_decoder): ModuleList(
    (0): MLP(
      (mlp): Sequential(
        (0): Linear(in_features=128, out_features=512, bias=True)
        (1): ReLU()
        (2): Linear(in_features=512, out_features=128, bias=True)
      )
    )
    (1): MLP(
      (mlp): Sequential(
        (0): Linear(in_features=128, out_features=512, bias=True)
        (1): ReLU()
        (2): Linear(in_features=512, out_features=128, bias=True)
      )
    )
  )
  (cl): ContrastiveLoss()
  (ncl): DenoiseContrastiveLoss()
  (dis): DistillLoss()
)
Adam (
Parameter Group 0
    amsgrad: False
    betas: (0.9, 0.99)
    capturable: False
    differentiable: False
    eps: 1e-08
    foreach: None
    fused: False
    lr: 0.002
    maximize: False
    weight_decay: 0
)

>> Start training 0-th initial, seed: 1,
…
